server/models/model_20.pt (torch, 136338 bytes, 6 tensors)

weight f4 [128, 64]
000000 9b 15 3c bd 3d ba d5 3d f9 df 0e 3d 38 41 a5 3d
       -0.045919042 0.10435913 0.034881566 0.0806908
000010 21 3a 5c bd 9b d8 15 3e d8 d3 09 3e 41 eb 54 3e
       -0.053766374 0.1463341 0.13459718 0.20792867
000020 9f 37 64 3d d8 b7 84 bd ea 71 bc 3d ab 58 82 3b
       0.055717107 -0.06480378 0.09201415 0.003977855
000030 c9 ab 37 3d 6e 88 dd 3b 1a 6e 9e 3c 57 d2 7f 3d
       0.04484156 0.0067606485 0.01933961 0.062456455
000040 0c 15 d9 bc af 0f 95 bd 68 c3 52 3e 30 6d 69 3c
       -0.026499294 -0.07278382 0.20582354 0.014247224
000050 e2 18 c9 bd 7e f8 a3 bd ec 88 a5 bc b9 5c b1 b9
       -0.09819199 -0.080063805 -0.020206891 -0.00033829155
000060 e7 d6 09 3e 5c 74 2c 3b 07 19 77 be 81 e7 50 be
       0.13460885 0.0026314473 -0.24130641 -0.20400812
000070 64 a5 25 3e d1 28 d0 bb 76 a5 a9 bc c4 ac 2c 3e
       0.16176373 -0.006352522 -0.02070878 0.1686278
000080 ea e1 06 3d cf 10 00 be b8 24 10 3e 68 bc 32 3e
       0.032930292 -0.12506412 0.14076507 0.17454684
000090 74 3f 22 3c 74 e1 14 bb 8a 8d 8c 3d a1 67 ae bc
       0.009902824 -0.0022717388 0.06862934 -0.021289648
0000a0 8e 55 7c bd 40 94 90 3d f8 fe 4e bd 66 f2 e6 bc
       -0.06160503 0.070595264 -0.050536126 -0.028191756
0000b0 bc dd c6 3d 5d 55 03 3c 40 f0 ca 3d 7f 8e 9e 3d
       0.09710261 0.008015958 0.09909105 0.07742023
0000c0 ff 86 dd 3d a8 19 e1 3d 7b b2 9c 3d a4 0c 28 3c
       0.10816764 0.10991222 0.0765123 0.01025692
0000d0 7e c3 79 bc c0 d5 e5 bd e5 ad 10 be ac 17 93 bd
       -0.015244363 -0.1122241 -0.14128835 -0.071822494
0000e0 2e 11 80 3a ca 8f f5 bc dd d3 8e 3d 41 74 4f bd
       0.0009770745 -0.02997579 0.069740035 -0.050647978
0000f0 80 12 66 bd 9c 89 6b bb 6f 07 56 3d ee 39 0a 3e
       -0.056169987 -0.0035940176 0.052253183 0.13498661
000100 83 18 98 bb 22 e5 ae 3d 91 fe 9b 3d 20 f7 fc bb
       -0.004641594 0.08539797 0.07616914 -0.0077198893
000110 d1 ac 66 bd 65 4c 06 3c 33 43 bb bd 11 af e5 bc
       -0.056317154 0.008196925 -0.091436766 -0.02803758
000120 ac b4 60 bd f1 67 29 3e 75 c4 3f 3e 46 f1 c4 3d
       -0.054859802 0.16543557 0.18727286 0.09616332
000130 b8 c0 3b 3d 02 e4 28 3e c3 9e ca 3c 9d 88 0b 3d
       0.045838088 0.16493228 0.024733907 0.03406583
000140 d0 f1 84 3d d5 90 27 3e 91 99 19 3d b7 85 ad 3d
       0.064914346 0.16363843 0.037499968 0.0847277
000150 5b 60 8e bd 9d d5 66 3d af a3 75 3d e4 78 d6 bb
       -0.06951972 0.05635606 0.059970554 -0.006545173
000160 0b 51 70 bc 4c f9 ea bc 5b 91 32 3e 08 b6 bb bd
       -0.01466776 -0.028683327 0.17438261 -0.09165579
000170 8c 3b f9 bd c8 1e d3 3c e1 25 79 bd 3f fd af 3d
       -0.12169561 0.025771514 -0.06082714 0.08593225
000180 ec ee fd 3d 4d fc ea 3d 7c 3a 78 3d c3 64 82 bd
       0.12399086 0.11473904 0.06060265 -0.06366875
000190 4e 81 47 3e 1d 6f 34 be ea 48 e9 3c 5a 4a 31 3d
       0.1948292 -0.17620511 0.028477151 0.043283798
0001a0 4d f3 5d bd 25 5d b9 bd 6c d7 3d 3d 31 07 1c be
       -0.054187108 -0.09050969 0.04634802 -0.15237118
0001b0 9f 91 4f be 4c 77 13 be 94 75 33 be a3 6d ec 3b
       -0.20270394 -0.14400977 -0.17525321 0.007215218
0001c0 e6 b0 b8 3c 87 34 26 be 91 e1 37 be 3a fd 93 bd
       0.02254529 -0.16230975 -0.1795714 -0.072260335
0001d0 30 41 43 be a7 e4 31 be f9 0c 04 be cd 20 f2 3c
       -0.19067836 -0.1737238 -0.12895574 0.029556656
0001e0 2d 56 20 be 33 8e 95 bd 92 60 75 3d 6d 18 04 3d
       -0.15657873 -0.07302513 0.05990655 0.032249857
0001f0 4f c4 47 bc 7f fb 12 bd f6 13 85 3d e1 78 50 3d
       -0.0121928 -0.035884377 0.06497948 0.05089653
000200 be 76 40 bc e3 68 3b 3d d4 fb 94 bc a0 0d 33 3e
       -0.01174706 0.045754325 -0.018186487 0.17485666
000210 7e fb 2e 3e eb 7d 91 3d 9c ca c1 3d 0c ed 86 3e
       0.17088124 0.07104095 0.09462473 0.26352727
000220 f1 17 a4 bc be d1 c7 bc 3a 55 0f 3e 06 ab ce 3d
       -0.020030947 -0.024392005 0.13997355 0.10091214
000230 a8 8a 41 bd cb 18 73 3d 76 df 50 3e 6d 38 fd 3d
       -0.047251374 0.059349816 0.20397744 0.12364278
000240 9d b3 24 3e 46 fd d3 3c f3 80 82 bc 16 d8 03 be
       0.16084142 0.025877606 -0.015930628 -0.12875399
000250 c6 33 7a be 3e c0 54 be 56 34 2b be d8 03 ca 3d
       -0.24433812 -0.2077646 -0.16719183 0.098640144
000260 dc 56 11 3d 19 38 4a 3c c2 be 47 bd 76 15 1e be
       0.035483226 0.012342476 -0.048765905 -0.15437874
000270 9f 6b 30 bd ff 34 8b 3d 02 fa 91 bd 99 6c 57 bd
       -0.043071385 0.067972176 -0.07127763 -0.0525938
000280 f7 1d 01 3e 11 b9 2e 3e 47 b5 44 3d bd 22 40 3e
       0.12609087 0.17062785 0.048024442 0.18763252
000290 71 57 0c 3e 71 a3 0c 3e 3b fa 13 bd f4 a9 c4 bd
       0.13705231 0.13734223 -0.03612731 -0.096027285
0002a0 ca 1a 8a 3d f6 a4 72 bd 03 47 9a bd e3 51 3b 3e
       0.06743391 -0.05923935 -0.07533076 0.18292956
0002b0 e9 63 25 3e c7 43 8f 3e 6d 44 f0 3d 47 54 83 3d
       0.16151394 0.27981398 0.11731801 0.06412559
0002c0 a6 26 96 3d c6 2e 5a bd 87 be 6a bd e9 b7 4b be
       0.0733159 -0.053267263 -0.057310607 -0.19894375
0002d0 be d4 81 3c b8 73 20 3d c7 ef 4e 3e ad dc 8a 3d
       0.015848514 0.039172858 0.20208655 0.06780372
0002e0 7e 73 11 bd c0 5b 40 3d d6 15 c5 bd 6c 1f af 3b
       -0.035510533 0.0469625 -0.096233055 0.005344322
0002f0 27 36 a9 bc 6b b5 92 3d 33 7d 41 bd 06 4d 69 bd
       -0.020655705 0.07163509 -0.04723854 -0.05695822
000300 c3 b7 9d bd 1b f1 e4 3d af 60 d8 bd 56 37 7d 3d
       -0.077010654 0.111788 -0.10565316 0.06182035
000310 43 5d e3 3c 9e 26 dd 3c 95 01 06 be b4 d8 31 be
       0.027754432 0.026995953 -0.13086541 -0.17367822
000320 69 ea c7 bd 7c d5 6c 3e f5 bb 32 3e 6d 95 0f 3e
       -0.09761507 0.23128313 0.17454512 0.14021845
000330 1c 27 05 3e 82 75 0c 3d 2d 25 b8 bd 4b 52 b5 bb
       0.130032 0.03429175 -0.08991466 -0.0055334917
000340 cf 13 ab 3b 20 4c bc 3c d7 67 02 be f5 8d cf bd
       0.005220867 0.022985518 -0.12734924 -0.10134498
000350 ee 99 16 be 22 0a 68 3d 15 6d 88 bd 02 40 34 be
       -0.14707157 0.05665029 -0.06661431 -0.17602542
000360 1a 75 21 be 61 fa 00 3d fa e7 db 3d fc f9 1c 3e
       -0.15767327 0.03148878 0.107376054 0.15329736
000370 cc 41 02 be 2d ea 23 3e 9e 6c 04 bc c7 c8 25 be
       -0.12720412 0.160073 -0.008082537 -0.16189872
000380 40 a3 5d 3d 2b fb d9 bd 9c 02 4e be 94 4e 01 be
       0.054110765 -0.106436096 -0.20118183 -0.12627631
000390 36 33 b9 bd a1 c0 66 bd f1 72 68 bd 9d 0b e4 bd
       -0.09042971 -0.05633605 -0.05675024 -0.111350276
0003a0 91 65 52 be 90 28 10 3d d6 00 01 3e c5 da da 3d
       -0.20546557 0.035194933 0.12597975 0.10686258
0003b0 8c 86 c3 bd 4d 61 71 3d a0 be ec bd 4b 5a e4 bd
       -0.09547147 0.058930684 -0.11559796 -0.111500345
0003c0 1d 2d d8 bd 08 ca 56 3d 36 c7 a3 3d 15 d9 30 3e
       -0.1055548 0.052438766 0.07996981 0.1727031
0003d0 e0 12 99 3a 18 b1 f1 3d eb 35 3e 3e 2e a2 69 bc
       0.0011678599 0.11801356 0.18575256 -0.014259858
0003e0 13 16 78 bd 1f 38 9f 3d 9b a6 c1 bc c7 f7 e1 bd
       -0.060567927 0.07774376 -0.023639014 -0.11033588
0003f0 2a cb 93 bc b5 a6 44 bd 2a 65 6b bc ca 9d bf bc
       -0.018041212 -0.048010547 -0.014367381 -0.02339067

bias f4 [128]
000000 99 aa 07 3e 5d 2b b9 3d 1f d7 cb bc ad 63 0f bd
       0.13248672 0.09041474 -0.024882851 -0.035007168
000010 b9 16 85 3c cc 1a d4 3b 6c 3c 73 bd 9b 83 f9 3d
       0.016246187 0.006472921 -0.059383795 0.12183305
000020 99 66 a8 3c 19 d3 d7 3c f9 ce 12 bd 36 f2 03 be
       0.020556735 0.026345776 -0.035841916 -0.12885365
000030 fe 25 82 3d c0 e5 1c be 8b 6c f5 3d e1 c8 b6 bd
       0.06354903 -0.15322018 0.119835936 -0.08925033
000040 34 78 02 3d af fa e7 bd ba f8 82 3d 76 e8 43 3d
       0.031852916 -0.11327111 0.06395097 0.047829114
000050 8e c8 fd 3d 0c 39 c1 3d 79 7b 1e be 2b a3 d1 3d
       0.123917684 0.09434709 -0.15476789 0.102362
000060 3f aa e2 bd bf 26 0f bd cb 03 8b 3d 4b 5a 39 bd
       -0.11067628 -0.03494906 0.06787833 -0.045252126
000070 29 b9 cd 39 c9 2a 96 bd e9 6b d1 bc 01 b4 7d 3d
       0.00039238602 -0.07332379 -0.02556415 0.061939243
000080 4a da f6 3b dd aa 1c be 30 b3 5e 3b 33 f8 fc 3d
       0.0075333463 -0.15299554 0.0033981316 0.12352028
000090 28 a8 e1 3d 24 b0 f9 3d 21 77 ae 3d ac 95 b8 3d
       0.110184014 0.12191799 0.08518816 0.09012923
0000a0 f8 2f 40 be 32 69 d5 bd 97 b9 3e be 08 39 0d be
       -0.18768299 -0.10420455 -0.18625484 -0.13791287
0000b0 98 f5 0c be 55 db e5 bc fe fa 30 3e 14 02 3f 3d
       -0.13765562 -0.028058687 0.17283246 0.04663284
0000c0 78 8f 20 be 06 81 e9 3d 5c 3e 8c bb 58 00 95 bd
       -0.15679729 0.114015624 -0.0042798948 -0.07275456
0000d0 ed de 8d bd a4 c0 c4 3d a0 13 19 be bd ee fa 3d
       -0.06927285 0.09607056 -0.14948893 0.12252567
0000e0 d7 b2 d4 bd 96 e9 dc 3d 82 21 3e bd 0b ee dd bd
       -0.103856735 0.107867405 -0.046418674 -0.10836419
0000f0 0c 34 14 3e 8b fc 49 be f9 0b 31 3e 09 7f 91 3c
       0.1447298 -0.19725244 0.17289723 0.01776077
000100 b3 1c 3c 3e bd a4 56 3e a9 70 66 bc dc a5 3b bc
       0.18370323 0.2096128 -0.014064946 -0.011453118
000110 2d fd 6c bc 51 30 2f bc 61 01 fd bd 5d ab e4 bd
       -0.014464659 -0.010692672 -0.12353779 -0.111654975
000120 e5 0a 08 3e 4f 45 d5 ba 56 9b b7 bc 21 58 e1 bd
       0.13285406 -0.0016271266 -0.022412937 -0.110031374
000130 28 5a 1f 3e a1 f8 93 3d 80 48 8a bd 41 09 07 be
       0.15561736 0.072251566 -0.067521095 -0.13187124
000140 a5 70 91 3d d4 68 13 3e 48 94 d3 bd e3 ec f7 bd
       0.07101563 0.14395458 -0.10331017 -0.121057294
000150 71 81 2c be b9 e9 7d 3d 74 56 fa 3d 29 58 05 3e
       -0.16846253 0.061990473 0.12223521 0.13021912
000160 cc 14 6c 3d ad 47 6e bb c7 01 93 3d ab ad 91 3d
       0.05763702 -0.003635864 0.071780734 0.07113203
000170 c9 a0 e3 bd 1d 05 42 3d 39 cc c2 3d ca 50 41 bc
       -0.11114652 0.047368158 0.09511609 -0.011799047
000180 0b e7 3a 3e 77 45 dd bd a5 3c 09 be 35 3f 01 bd
       0.18252198 -0.10804265 -0.1340204 -0.03155442
000190 c4 2d 27 3c ba 89 24 3e 5d 04 33 3e bc 6b ff 3d
       0.0102037825 0.16068164 0.17482133 0.124717206
0001a0 db 5e a7 bd 1c ad ee bc fe 33 2b be 59 85 0d be
       -0.08172389 -0.02913528 -0.16719052 -0.138204
0001b0 04 0d 0b be 86 9d 45 3d d9 71 84 bd 72 a0 27 be
       -0.13579184 0.04824593 -0.06467027 -0.16369799
0001c0 da 40 1a be 09 33 10 3d ec 06 96 3d fa 7a 97 3d
       -0.15063801 0.03520492 0.07325539 0.07396503
0001d0 cc 74 9d 3d fd bb 14 be e2 94 dc 3c c7 ad 1c bd
       0.07688293 -0.14524837 0.026926462 -0.038251664
0001e0 66 53 34 be 6a ec 92 bd 33 f3 27 3e df 8f e5 3c
       -0.17609939 -0.07173999 0.16401367 0.028022705
0001f0 ec 24 eb 3d da 42 45 3d 31 31 c4 bd cd 59 ec 3d
       0.11481652 0.048159458 -0.09579695 0.11540566

weight f4 [128, 128]
000000 68 5d c9 3d 97 e3 2f be 02 f1 8a 3c 67 b3 b6 bd
       0.09832269 -0.17176662 0.016960625 -0.08920937
000010 6d bc 9b bb cf d7 2e 3d ac ce ac bd 4b f9 60 bd
       -0.0047526867 0.04268628 -0.08437857 -0.054925244
000020 96 0b 66 bd c1 73 99 bd 36 d9 0c bd 49 c7 02 3e
       -0.056163393 -0.074927814 -0.034386836 0.12771334
000030 4f ea f9 bd 84 7b 1c 3d 76 7c 51 bd 18 70 c6 bd
       -0.12202894 0.03820373 -0.051144086 -0.09689349
000040 9b 45 11 3e a8 d0 88 bd 29 10 f7 3a 26 ee 25 3e
       0.14186709 -0.06680423 0.0018849421 0.16204128
000050 44 d7 a8 bd 7a dd e7 3d d8 9a 3b be ed 88 9f 3d
       -0.08244184 0.1132154 -0.18320787 0.077897884
000060 4c 71 cb bc 84 cf de bd 77 bb a9 3d 00 e1 ae bd
       -0.024834298 -0.10879424 0.08287709 -0.08539009
000070 71 3f d6 bc ad fb 8b bd f2 9a 3e 3d a9 5a 86 3d
       -0.026153298 -0.06835113 0.046534486 0.06560261
000080 6b a2 c6 bd 30 26 46 3c 2d 27 87 ba 23 6b fc 3c
       -0.096989475 0.012094066 -0.0010311358 0.030812806
000090 e4 3e a5 bd a7 7c d4 bd c3 3b 91 3d 29 2c 8b bd
       -0.08068636 -0.10375338 0.07091477 -0.06795532
0000a0 00 2c d2 bd fa 62 a3 bd 7b 18 f7 bd f6 71 0f be
       -0.102622986 -0.07977863 -0.12065216 -0.14008316
0000b0 42 47 3c be 25 d3 c0 3d e0 7f 20 be 8e 3b fb 3d
       -0.18386558 0.094152726 -0.1567378 0.122672185
0000c0 6d c3 d6 bc 2a 68 9e 3d 53 44 32 be 40 cf 36 be
       -0.026216233 0.077347115 -0.17408876 -0.17852497
0000d0 80 68 1c 3e da af 87 3b 48 e1 3c 3c 9f 62 3e 3e
       0.15274239 0.004140836 0.011528321 0.18592308
0000e0 fc 7c 39 3d 36 e3 a5 3b f4 35 02 3d 57 65 05 3c
       0.04528521 0.005062486 0.031789735 0.008141837
0000f0 e2 e0 06 3e 89 1c e9 3c 4f 55 20 3e b1 bb 0d 3d
       0.13171723 0.02845599 0.15657543 0.034602825
000100 18 91 a4 3d d3 46 09 3e 9a 56 fd 3d c9 ec 52 3d
       0.08035487 0.13405924 0.123700336 0.051495347
000110 b3 5b 9f bd eb d9 d8 3b b6 59 cc 3d 69 84 7d 3d
       -0.07781162 0.0066177747 0.099780485 0.061893854
000120 ee 4f 3a bd c8 68 8d bd c1 ea 21 be 50 f7 a2 3d
       -0.045486383 -0.06904751 -0.15812208 0.07957327
000130 05 71 85 bd db 15 06 bd f4 e5 da 3d 98 6c 97 bd
       -0.065156974 -0.032735687 0.10688391 -0.073937595
000140 08 c5 e2 3b b1 fb 78 3d 72 2a 13 be df 6d ca bc
       0.0069204606 0.060786907 -0.1437166 -0.024710594
000150 b5 d1 2a be 98 e9 59 bd 0b 10 a7 bb 68 90 18 3c
       -0.1668156 -0.053201288 -0.005098348 0.009311773
000160 14 32 70 3d f7 21 55 bd 18 e5 47 bc fd 71 e6 3c
       0.05864151 -0.052034345 -0.012200616 0.028130526
000170 98 ca ec 3d 86 38 92 3d 1e 3c 32 be f6 5b dc 3a
       0.11562079 0.07139687 -0.17405745 0.0016812074
000180 de 4f 23 3e c5 2d 63 bd de 64 29 bd e2 ea 16 bd
       0.15948436 -0.05546357 -0.04135596 -0.036845095
000190 90 f0 8f 3a 2e 43 9f bd f3 1a 2c 3d fe 0f 9a 3b
       0.0010981727 -0.077764854 0.04201789 0.0047016134
0001a0 b7 85 b1 bd 93 3b 19 bd 96 ce 99 bd bd 35 7e 3c
       -0.08668082 -0.03741033 -0.07510106 0.015515742
0001b0 21 bb 03 be cb 11 17 be a0 0b 34 bd 46 ca 98 bd
       -0.12864353 -0.14752881 -0.0439564 -0.074604556
0001c0 4b cb 15 be 9c d8 c1 3d 6d 8e 47 be b7 bc 43 3d
       -0.14628331 0.09465143 -0.19487925 0.047787394
0001d0 64 00 d1 3c 4f d0 4d be 6b c2 cf bd 30 cc ac b9
       0.025512882 -0.20098995 -0.10144504 -0.00032958528
0001e0 8d ca 06 bd fc ba 31 bd 1c 25 65 3d 78 21 16 bd
       -0.03290801 -0.043391213 0.055943593 -0.036653012
0001f0 db 64 ee 3d c8 88 f8 bd fa 56 03 3d ac f7 d5 3d
       0.116403304 -0.12135464 0.03206537 0.1044763
000200 f1 a1 bb bd 83 b2 6c 3d 31 f8 8c bd 9e 75 2d 3d
       -0.09161747 0.05778743 -0.06883276 0.042348497
000210 e2 3c c7 3d eb 0f 37 3d 0b 96 cd 3d 76 5d 84 bd
       0.09728409 0.044692915 0.10038384 -0.06463139
000220 a9 32 11 3d b4 39 69 3e 54 4d 16 be 28 6c c5 3d
       0.035448704 0.22775918 -0.14677936 0.0963977
000230 3d b9 52 bd d6 42 2d bb 3e 14 b0 bd e2 86 0a 3c
       -0.05144619 -0.0026437542 -0.08597611 0.00845501
000240 74 7f 3f 3c 3f 96 3b 3d cd 6c a2 bd 05 d0 92 3d
       0.011688102 0.045797583 -0.07930908 0.07168583
000250 bc 15 37 3e e0 11 66 be a8 93 dd 3d b8 ef ad bc
       0.17879385 -0.22467756 0.10819179 -0.02123247
000260 4b 80 dc bd f7 08 c9 bb 3b 83 04 be c1 dd 54 3e
       -0.107666574 -0.006135102 -0.12940685 0.20787717
000270 74 a0 86 bd 9e b4 ba 3d 72 c5 0c 3e 15 c2 70 bd
       -0.06573573 0.09116481 0.13747194 -0.05877884
000280 b3 58 e7 bd 6e a8 d7 3d 9c b6 75 3d ab d0 3a bd
       -0.11296215 0.10530172 0.059988603 -0.045609158
000290 42 aa 18 3d c6 5e b3 3d 73 ca fb 3d 29 50 c7 bd
       0.037271746 0.08758311 0.122944735 -0.09732086
0002a0 f1 a8 97 bd 29 b3 e1 bd 24 97 28 be 20 88 fa 3d
       -0.0740527 -0.110205 -0.16463906 0.12232995
0002b0 6e 7a 9e 3d 83 54 2a be 70 af bc 3c 85 8f 0f 3e
       0.07738195 -0.16633801 0.023032874 0.14019592
0002c0 40 f6 e6 3d 4c 63 e3 3c 07 67 fa 3d fb 10 46 3c
       0.11277437 0.02775731 0.12226682 0.012089009
0002d0 39 03 9f bc 06 18 06 be 75 a3 c4 3d 36 60 7e bc
       -0.019410716 -0.13095102 0.096014895 -0.015525868
0002e0 fe 01 7b 3d 14 bc 1a 3c 9d d8 67 3c 5f 3b 21 bc
       0.061281197 0.009444255 0.014150766 -0.009840815
0002f0 3c 8b d5 bd 1b b7 4f bd e7 dc 2e bd 9c a2 de 3d
       -0.104269475 -0.050711732 -0.042691138 0.10870859
000300 3d 57 e4 3c 16 ec 61 be 9d 7b 8b 3d 47 1d 08 be
       0.02787363 -0.22062716 0.06810687 -0.13292418
000310 d2 d9 00 bd 5a 38 85 3d 10 5d 09 be 2d e2 30 bd
       -0.03145773 0.06504889 -0.13414407 -0.043184448
000320 0f 4e a2 bd 6a 7d 3a 3d de 1e 9f 3d 31 3d d0 bb
       -0.07925045 0.04552976 0.07769559 -0.006354951
000330 23 8f 97 3d d2 e1 78 bd f5 1d 8a 3c 68 b5 23 3e
       0.07400348 -0.060762234 0.016859988 0.1598717
000340 65 eb 1a bc 97 a9 d0 3d ac 3b c6 bd 66 08 a1 3d
       -0.0094555365 0.10188597 -0.0967935 0.0786293
000350 23 61 e8 3d cc 6c 10 bd 4d ee 1d bd 5b e3 61 3c
       0.11346652 -0.035260007 -0.03855734 0.013787116
000360 34 da d8 bd 45 c2 d9 3d 6b 9f 47 be bb 23 fb bd
       -0.10588494 0.10632757 -0.19494407 -0.122626744
000370 2c dc 8c 3d d6 02 5b be f2 09 ce 3d 2c 3a 00 be
       0.06877932 -0.213878 0.10060491 -0.12522191
000380 88 83 80 bc 0c ca 8a 3d e5 cb 07 3d 12 1d b2 bc
       -0.015687719 0.06776819 0.033153433 -0.021742377
000390 69 99 4f 3d 6e 48 bd 3d e7 cb a3 3d 72 01 eb bd
       0.050683413 0.092423305 0.07997876 -0.11474885
0003a0 e3 62 19 bd b4 73 94 3d 03 2c 08 3e 0d 6e f2 bd
       -0.03744782 0.07248631 0.13298039 -0.11837397
0003b0 c8 ce 76 bd 08 d4 58 3e c4 4e 24 3e 4a 63 fd 3c
       -0.060255796 0.21174634 0.16045672 0.030931134
0003c0 02 73 ce 3d ac 2b b9 bd 43 7c 11 3e 3e 53 dd 3d
       0.1008053 -0.09041533 0.14207558 0.10806893
0003d0 85 12 bb bd a1 a6 84 bd 24 be ef 3c e7 f8 80 bd
       -0.09134392 -0.064770944 0.02926547 -0.06297474
0003e0 d0 29 c5 bc 74 3d 82 bd 14 41 c7 bd 8c a7 7d bd
       -0.02406779 -0.063593775 -0.097292095 -0.061927363
0003f0 8a a7 5d 3d c0 a7 14 3c a4 f8 9b bd d9 4e 32 be
       0.054114856 0.009073198 -0.07615784 -0.1741289

bias f4 [128]
000000 84 a0 dd 3d e1 43 b2 bd f1 aa c3 bd fe d5 c9 bd
       0.108216316 -0.08704353 -0.09554089 -0.09855269
000010 fd 21 85 3c 5a 8b f8 bc 05 42 0d 3e ad 32 35 bc
       0.016251558 -0.030339886 0.13794716 -0.011059445
000020 31 01 83 bd 28 c6 a5 3d 4c 72 26 bd d9 c7 01 3e
       -0.063967116 0.08094436 -0.040636346 0.12673892
000030 95 3c 85 bd 35 d9 75 bd 90 4b 86 3d 7a 45 e5 bc
       -0.06505696 -0.060021598 0.06557381 -0.02798723
000040 2a 7f bd 3d 39 88 da 3d 18 fe db 3d 25 4e 04 3c
       0.0925277 0.10670514 0.10741824 0.008075272
000050 94 ce a3 3c 73 c2 fe 3d 9b 5c 26 bc ed 92 7e bd
       0.019995965 0.12439432 -0.010153915 -0.062151838
000060 f2 84 c5 bd 70 ad 91 bd 24 69 a5 bd e1 d6 2a bd
       -0.09644498 -0.07113159 -0.080766946 -0.04170883
000070 05 5f e3 3d 14 ad 77 bd 04 cb d8 3d 3f 94 33 bd
       0.11102108 -0.060467795 0.10585597 -0.04384255
000080 b4 aa 84 bd 61 92 90 bd be a7 a6 3c fb 52 3e bc
       -0.064778715 -0.070591696 0.020343658 -0.011616464
000090 91 6f ba bd 61 6e a6 bd 6b f1 c1 bd 8e ea 71 3d
       -0.09103311 -0.08126522 -0.09469875 0.05906158
0000a0 68 e6 be 3d 89 d4 0e 3e 63 07 3e 3d 72 5a 08 3d
       0.0932129 0.13948263 0.046393763 0.03328938
0000b0 a3 ef 8d bc c3 66 c9 3c 78 4e bc 3c 41 61 30 bd
       -0.017326182 0.024585133 0.022986636 -0.0430615
0000c0 34 d8 66 bc 1e 1c c9 3d 9f 96 b8 bd 02 e9 f4 3b
       -0.014089633 0.09819816 -0.09013104 0.0074740658
0000d0 fc 4e 30 bd a6 37 bc 3d 97 b9 f5 3d 40 49 92 bc
       -0.043044075 0.091903016 0.11998289 -0.017857194
0000e0 25 8a 97 bd a1 c2 c1 3d 69 a1 03 3d 7a 94 ce bd
       -0.07399396 0.09460951 0.032136355 -0.100869134
0000f0 79 2a fc bc 56 c6 d4 3d 6a a5 a9 3d 9b 04 80 bd
       -0.030781971 0.10389392 0.08283503 -0.062508784
000100 49 f0 cc bd 5c b0 39 3d aa 50 93 3c ed 91 19 be
       -0.10006768 0.045334205 0.0179828 -0.14997073
000110 7f be 1e bd b4 7a 33 bd 36 76 4f 3c ea 5e 28 3e
       -0.03875589 -0.04381819 0.012662461 0.16442457
000120 b0 a1 8c bd fc 97 b1 3c 0d d1 86 3d f6 f3 9f 3d
       -0.06866777 0.021678917 0.06582842 0.07810204
000130 a2 34 68 3d 97 bf e4 3d ac c9 c1 3d 34 93 f6 3c
       0.05669082 0.11169355 0.09462294 0.030099489
000140 9a 50 3b 3d b9 cb 8e bd cd 72 a0 3d e8 67 91 bc
       0.045731165 -0.06972451 0.078343965 -0.017749742
000150 ab d0 8a bc 1b b0 2b 3c cf 6d d7 3d dd 38 56 3d
       -0.016945204 0.010478999 0.10518991 0.052300323
000160 d6 9f 9c bd fd 0e fe bd da 29 5b 3d 4a 43 07 be
       -0.07647674 -0.124052025 0.05350671 -0.13209262
000170 f4 0f b3 bd ea eb c8 bd a0 0b 94 3d 12 43 9e 3d
       -0.08743277 -0.09810622 0.0722878 0.077276364
000180 51 ca 16 3e 2c 55 26 bd 37 f9 6b 3c b4 1d 9c 3d
       0.14725615 -0.04060857 0.014402679 0.07622853
000190 4a b7 9f 3d 48 41 b6 bd 15 2c da 3c be 1c 10 3d
       0.077986315 -0.0889917 0.026632348 0.03518366
0001a0 b1 94 8d bd 8c 31 58 bc a7 53 bb 3c 93 06 fe bd
       -0.06913126 -0.013195407 0.022867037 -0.12403598
0001b0 66 d5 a3 bd 41 b4 b9 bd 76 f2 40 bd d5 5b 90 bd
       -0.07999687 -0.09067584 -0.04710623 -0.070487656
0001c0 a9 94 a1 3d 1f c5 ad bd 81 a9 56 bd 46 1e f7 bd
       0.07889683 -0.084848635 -0.052407745 -0.12066321
0001d0 dc 50 0c bd ec 1d c6 bd 85 fe 87 bd d4 f7 0d 3b
       -0.0342568 -0.09673676 -0.066403426 0.002166261
0001e0 7c d6 88 3d 3e 52 2f bd bb 90 ca bd 8b 2a d7 3d
       0.06681535 -0.04280304 -0.098908864 0.10506161
0001f0 53 41 9c bb dc 55 eb bc 24 76 9b 3d 36 87 1c 3c
       -0.0047685294 -0.028727464 0.07590893 0.009553721

weight f4 [64, 128]
000000 b4 9e 51 be 79 20 34 3e b3 41 83 bd c1 ff 2b 3e
       -0.20470697 0.17590512 -0.064090155 0.16796781
000010 52 46 b7 bd 96 4a b2 3d d3 f2 28 3e a6 47 50 be
       -0.089489594 0.087056324 0.1649888 -0.20339832
000020 9b 2f 27 be d0 ce 05 3e 6d 2e 5e be 3c bf e1 bd
       -0.16326754 0.13067174 -0.21697398 -0.11022803
000030 f3 d2 21 bd 8d ad 1e be f5 07 c2 bd 04 b1 ec bc
       -0.039507817 -0.15495892 -0.09474174 -0.028893001
000040 be 79 27 3e 8e a1 2d be 8f fa e1 bd 7c 92 b1 3d
       0.16355035 -0.1695616 -0.110341184 0.08670518
000050 f3 6c 50 3e 1f 9c 50 bd c4 6b 1c 3e 0a e5 3a 3d
       0.20354061 -0.05093014 0.15275484 0.045628585
000060 20 ea 4e 3d ab 9a 45 be 87 cd f6 3d 72 94 0f 3e
       0.050516248 -0.19297282 0.1205092 0.14021471
000070 2f bc c0 3d bc 70 49 be f6 5c fc bb c2 f3 9c bd
       0.09410893 -0.19671911 -0.0077015115 -0.076636806
000080 c8 10 f3 3d d0 8b 74 3e 18 3f 0c be ce a0 3e be
       0.11868435 0.23881459 -0.13695943 -0.1861603
000090 f6 9c 6a bd ba 21 74 3e 76 a8 22 3d 01 a5 8a bd
       -0.057278596 0.2384099 0.039711438 -0.06769753
0000a0 95 a5 0d be 25 a7 7a bb 2f 0f 06 3d ce 69 1b 3e
       -0.13832696 -0.0038246599 0.032729324 0.1517708
0000b0 a7 a5 91 bd bb 59 90 bd 9e d0 29 be 3a 48 28 3e
       -0.07111674 -0.07048365 -0.16583487 0.16433802
0000c0 56 8b 04 3e e1 e6 77 bd 07 52 91 3d 8e 1b 6a 3d
       0.12943777 -0.060522918 0.070957236 0.057155184
0000d0 25 0d 22 3e 41 3e d6 bd 72 8e 12 be 70 d1 93 bc
       0.15825327 -0.10461093 -0.14312151 -0.018044204
0000e0 c2 0e 05 bc 5a 6d db 3d b5 68 de bd 00 aa f1 bc
       -0.008121194 0.107142165 -0.10859815 -0.029500008
0000f0 9c 97 0a 3e 44 5e 0d 3d 5c d8 22 be 10 a9 c2 3b
       0.13534397 0.034513727 -0.15902847 0.005940564
000100 07 03 ab bd 8c db 40 be ad 82 e8 3c d9 d5 13 3e
       -0.08350187 -0.1883375 0.028382624 0.14437045
000110 89 91 00 3e b4 23 39 3e c3 df c7 3d cc b4 ac bd
       0.12555517 0.18080026 0.09759476 -0.08432922
000120 02 41 99 bd b9 bc 41 3d 1a 05 a8 3b 08 f1 e1 3d
       -0.074831024 0.04729912 0.0051275613 0.11032301
000130 34 c1 87 bd 9c d0 09 3d 5d c7 1a 3e 4c 6f 54 bd
       -0.066286474 0.03364621 0.15115114 -0.051863953
000140 b1 5b 17 3e 72 ee 5b be 1d 5b 00 3e 82 fd 56 3d
       0.14781071 -0.21477678 0.12534757 0.052487858
000150 75 f6 15 3d 1e 96 b3 bb 43 b4 97 bd 3b 42 93 bd
       0.036611993 -0.005480542 -0.07407429 -0.07190367
000160 81 45 ee 3d 9b 36 44 3d e1 35 11 3e ee 81 6c 3d
       0.116343506 0.04790364 0.1418071 0.057741098
000170 31 3b d3 bc 60 74 5a 3e 5c e7 eb 3d 17 d2 1a 3e
       -0.02578506 0.21333456 0.11518738 0.15119205
000180 ab 52 09 be a8 b2 6b be 8f 34 0d be b8 0f 14 bd
       -0.13410442 -0.2301737 -0.13789581 -0.036147803
000190 6d c1 24 be 73 26 09 3e 01 c2 a1 bd ec 76 c3 bd
       -0.16089411 0.13393573 -0.078983314 -0.09544167
0001a0 f1 1e 1b 3d 14 23 33 3e 4d 53 ee 3d 72 f1 52 3c
       0.037871305 0.1749385 0.11636982 0.012874948
0001b0 08 ea 35 3e 0d 8d 41 bc 2d ff 9d bd 26 d8 75 3d
       0.17765057 -0.011813414 -0.077146865 0.06002059
0001c0 7f 5d 35 bc d3 1e 8d bd a4 54 29 3c 3d f1 3b 3d
       -0.0110696545 -0.06890645 0.010335121 0.04588436
0001d0 a3 89 3b bd 87 5b 9d 3d b1 88 42 bd ff b2 f9 ba
       -0.045785557 0.07683473 -0.04749364 -0.0019050537
0001e0 48 bf 96 bd 71 65 dc bd d6 77 a0 3b a5 8e 79 3d
       -0.07360703 -0.10761536 0.004897098 0.060927052
0001f0 5e b7 68 be 9c 2e f4 bd 03 c6 d6 bd ba 7c 53 be
       -0.22726199 -0.119229525 -0.104869865 -0.20653048
000200 27 2d 09 be d4 e2 b7 3c 16 2d 8c 3d ad 6f be bc
       -0.1339613 0.022447027 0.06844537 -0.02324661
000210 c0 58 12 be 7f e1 7f 3d 52 b3 cf 3d 8f 00 d2 bd
       -0.14291668 0.06247091 0.101416245 -0.10254013
000220 32 16 88 3d a6 78 bd 3c 64 0c ef bd 83 26 4c bd
       0.066448584 0.023128819 -0.11672285 -0.049841415
000230 89 31 9d 3d f3 b2 00 bd ca 29 c0 3a 75 d3 ea bd
       0.07675464 -0.03142066 0.0014660892 -0.114661135
000240 3b e9 2c 3d e8 00 32 bd fe 3e 14 be 14 ec 06 bc
       0.042214613 -0.043457896 -0.14477155 -0.008234996
000250 47 98 35 3e aa e5 c4 3d 28 27 88 3c 0d c7 0a 3d
       0.1773387 0.096141174 0.016620234 0.033881236
000260 bb 91 36 3e 0e 10 c7 bd 34 11 2c 3e 71 21 3d 3d
       0.1782903 -0.09719859 0.16803437 0.04617447
000270 c2 6e a1 bd e0 78 09 be 5e a6 fe bd 38 83 55 bd
       -0.078824535 -0.13425016 -0.12434076 -0.052127093
000280 4f 34 88 3d c3 d4 88 3d 53 3f 8b bd ff 99 29 bd
       0.06650602 0.06681206 -0.067991875 -0.041406628
000290 dd 51 02 3e c3 d9 2c bc c9 c9 38 3d 9e 46 b8 3d
       0.12726541 -0.010549965 0.045114312 0.08997844
0002a0 75 be e8 bd c4 d5 54 3d bd ef 4d 3e 18 d1 6e bd
       -0.11364452 0.051961675 0.20110984 -0.058304876
0002b0 ac c3 04 be 83 b6 85 bd 81 95 9f bd be cf 2e 3e
       -0.12965268 -0.06528952 -0.077921875 0.17071435
0002c0 4c df 89 3d 68 9e 06 be b7 47 21 3e 69 d3 d0 3d
       0.067320436 -0.13146365 0.15750013 0.10196573
0002d0 e8 ff a0 3d ff 92 c8 bc a4 1c ab bd eb 2f 4c 3d
       0.0786131 -0.024484156 -0.08355072 0.049850386
0002e0 ef f6 2b 3c 89 72 19 bd 72 af 88 3c 42 34 0b 3e
       0.010495885 -0.037462745 0.016685221 0.13594154
0002f0 12 df 9f 3d 46 fc 7e bc 49 a8 c1 bd 6a 56 8b 3d
       0.07806219 -0.015563076 -0.09455926 0.068035915
000300 4b 78 0b 3c 7a 0f a6 3d 41 6a 18 bd 4f cf 33 3e
       0.008512567 0.08108421 -0.037210707 0.1755955
000310 67 66 12 3e f3 ea d2 3d 8e 26 6f 3d ad 19 5e 3d
       0.14296876 0.10298719 0.058386378 0.054223705
000320 0e 07 b7 bc 32 67 99 bc 47 c0 ba 3d d8 1c 59 3c
       -0.022342231 -0.018725965 0.09118705 0.013251506
000330 f9 35 d5 3c 21 80 e6 bb ad 3f 88 3d 0d b0 bd 3d
       0.026026713 -0.007034317 0.0665277 0.09262095
000340 dd e5 5e 3d 0e 96 52 bd 88 8e 8d bd 86 be de bd
       0.054418433 -0.051412635 -0.06911951 -0.10876183
000350 81 1e 27 3e bb 4e e5 ba 95 5e 23 be c0 fa 12 bd
       0.1632023 -0.0017494777 -0.15954049 -0.035883665
000360 6f de 15 3d 1b 80 b0 3c 72 c6 7e bd f2 b3 98 bb
       0.036589082 0.02154546 -0.06220097 -0.004660123
000370 ed 09 e5 3d 1b f5 88 3d 6b 88 ad 3c f8 e0 b9 3d
       0.11183534 0.06687375 0.021183213 0.090761125
000380 5a 3c e5 bc 80 d9 f8 bc a8 19 43 be c1 54 00 be
       -0.02798288 -0.03037715 -0.19052756 -0.12532331
000390 cc 9c 31 be 82 bb fa 3d a3 c3 34 3d 37 7d 0f be
       -0.1734497 0.122427955 0.044131886 -0.1401261
0003a0 c8 eb 9f 3d e2 f9 14 3e 7b 8b 14 3d 1a c6 cc bd
       0.078086436 0.14548448 0.03626583 -0.099987224
0003b0 19 74 4f 3e 3a ab 94 bd f6 b5 ef 3d b6 71 0a 3e
       0.20259131 -0.072592214 0.11704628 0.1351994
0003c0 d6 4c 44 3d 58 73 3b 3e 08 af 8c 3c d1 65 99 3d
       0.04792484 0.18305719 0.017173305 0.07490123
0003d0 b5 be c2 3d c6 65 09 3d d2 b4 27 3e f2 37 e6 bc
       0.09509031 0.033544324 0.16377571 -0.028102849
0003e0 35 ce 13 be 0b 5c 68 bd 3c c9 0f 3d 8f 8a 1f 3e
       -0.1443413 -0.056728404 0.03510402 0.155802
0003f0 db 2c 86 3d 6f 4e 95 bd da f0 02 bc 29 d9 ac 3c
       0.06551524 -0.07290351 -0.007991994 0.021099644

bias f4 [64]
000000 b5 63 92 3d fa 53 65 3d 41 71 48 bd 4e 3c 26 bc
       0.07147924 0.05598829 -0.048936132 -0.010146214
000010 78 4d 82 bd 60 cd 5c bd 43 37 4b 3c 7e a6 8b bd
       -0.06362432 -0.0539068 0.012403312 -0.06818865
000020 5b f2 54 3b cd d0 d3 3d eb 93 31 3e 8b 05 82 3d
       0.0032493088 0.1034256 0.17341582 0.063487135
000030 14 40 0a bc f7 68 26 bd 2a 68 a9 3c 8f 52 04 bd
       -0.008438129 -0.040627446 0.020679552 -0.032305297
000040 dd fb 17 be bc be a4 3d de 4d 08 3d 16 ba bd 3d
       -0.14842172 0.08044192 0.033277385 0.09264009
000050 d6 4e f2 bb c1 49 ee bc 7d 9e c5 bd 91 d4 86 3d
       -0.007394652 -0.029087903 -0.0964937 0.065835126
000060 49 fd bd bc 2d 9f 4e bd 03 ca 9c 3d be 18 f5 bc
       -0.023192065 -0.05044477 0.07655718 -0.029919025
000070 89 a9 ed bc 0e fc 91 3d 57 29 b3 3d 53 36 ce bd
       -0.029011505 0.07128154 0.08748119 -0.10068955
000080 50 a9 c2 bd 6c 14 8e 3d 98 f3 3c 3d 5d 3b 84 bd
       -0.0950495 0.06937489 0.046130747 -0.06456635
000090 7f bb dc bd b0 d9 48 3c 4a a4 c2 3b b4 21 89 bd
       -0.107779495 0.012258932 0.005939995 -0.066958815
0000a0 38 fd a0 bd 51 68 71 3c cf 2b c2 bc ec 2c 20 3d
       -0.07860798 0.014734344 -0.02370253 0.03910534
0000b0 64 8c 64 bd d8 fa df 3d ba 4f c5 3d 73 cc b1 bd
       -0.05579795 0.109365165 0.09634347 -0.08681574
0000c0 b6 10 71 3d 0a 88 b9 3d 2b 48 1b 3c 97 ce ac 3d
       0.058853827 0.090591505 0.009477655 0.084378414
0000d0 ca 20 4a 3d 97 a2 00 3e ef c5 d4 3d b6 73 1c be
       0.049347676 0.12562023 0.10389315 -0.15278515
0000e0 ff 9b ea bb 1c d8 c7 3d 39 8e d9 bd 69 8a 43 3d
       -0.0071597095 0.097580165 -0.1062283 0.04773942
0000f0 3e 12 87 bd ef 92 dc 3c ac 41 88 bc c4 be 2f bd
       -0.06595276 0.026925532 -0.016632877 -0.042906538
